2d/model/00030/decoder_y.pt (torch, 4353 bytes, 9 tensors)

module.decoder.0.0.weight f4 [8, 1]
0	0xbf225c10	-0.63421726
1	0xbfbbc8c2	-1.4670641
2	0x3f9285d8	1.1447096
3	0x3ef643b1	0.4809852
4	0xbeeb773f	-0.45989415
5	0x3ee47b8a	0.44625503
6	0x3d102e40	0.035200357
7	0x3f99ffd9	1.2031204

module.decoder.0.0.bias f4 [8]
0	0x3f818fb8	1.0121984
1	0xbf3cb35d	-0.73711187
2	0xbf297473	-0.6619331
3	0x3f42e31c	0.7612779
4	0x3f3b7c7b	0.7323682
5	0x3f339433	0.7014801
6	0xbf669c36	-0.9008211
7	0x3e67a561	0.22621681

module.decoder.0.2.weight f4 [1, 8]
0	0xbec257ce	-0.37957615
1	0xbfb885a0	-1.4415779
2	0x3fa99e54	1.3251443
3	0x3ee952bc	0.45570934
4	0xbec64926	-0.38727683
5	0x3f00f49c	0.50373244
6	0xbeb293bc	-0.34878337
7	0x3ef51144	0.47864735

module.decoder.1.0.weight f4 [8, 1]
0	0x3f65571b	0.8958604
1	0xbf2cfc5c	-0.6757257
2	0xbde048d0	-0.10951388
3	0x3f431acb	0.7621276
4	0xbeb96bdd	-0.36215106
5	0xbed191da	-0.40931588
6	0x3f1adb60	0.6049099
7	0xbf991a3c	-1.1961131

module.decoder.1.0.bias f4 [8]
0	0xbf57ea30	-0.84341717
1	0x3f96b172	1.1772902
2	0xbf533a80	-0.8251114
3	0x3faa52a5	1.3306471
4	0x3f22e0e3	0.636244
5	0x3f37e8d3	0.71839637
6	0x3f880915	1.0627772
7	0xbf8afac5	-1.0857779

module.decoder.1.2.weight f4 [1, 8]
0	0xbfd1c357	-1.6387738
1	0x3e9546dd	0.29155627
2	0xbeb026a5	-0.34404483
3	0xbec34292	-0.38136727
4	0x3f2b7d24	0.66987824
5	0x3f277785	0.6541675
6	0xbf0bc66e	-0.54599655
7	0x3f919fae	1.1376855

module.decoder.2.0.weight f4 [8, 1]
0	0x3f222e1a	0.63351595
1	0x3f456303	0.77104205
2	0xbf1fe01a	-0.62451327
3	0xbf16eecf	-0.58958143
4	0xbfa4c76e	-1.2873361
5	0x3f9e6808	1.2375498
6	0xbf42a443	-0.76031893
7	0xbf1532c0	-0.58280563

module.decoder.2.0.bias f4 [8]
0	0x3f8e6e24	1.1127362
1	0xbf33bdae	-0.70211303
2	0xbf01d1a9	-0.5071054
3	0xbf432c20	-0.76239204
4	0x3e265b49	0.1624576
5	0xbec177a0	-0.3778658
6	0xbf6627a7	-0.89904255
7	0x3f86879c	1.0510135

module.decoder.2.2.weight f4 [1, 8]
0	0x3f31eec4	0.6950495
1	0x3f7f990b	0.998429
2	0xbf8f2625	-1.1183516
3	0xbf916741	-1.1359636
4	0xbed94620	-0.42436314
5	0x3f2f062d	0.683688
6	0xbf9d1e45	-1.2274863
7	0xbf16a403	-0.5884401
