2d/model/00030/encoder_y.pt (torch, 4289 bytes, 12 tensors)

module.encoder.0.0.weight f4 [8, 1]
1.1217408 -0.46952304 1.4483719 0.17547834 1.2572095 0.0606097 0.3311863 -0.14220202
00000000: 3495 8f3f 5365 f0be 4064 b93f 98b0 333e
00000010: 3eec a03f e041 783d 4091 a93e 689d 11be

module.encoder.0.0.bias f4 [8]
0.21346608 1.6631021 0.0004977927 -0.52759933 0.7982424 -0.12646472 -0.3411621 -0.55924714
00000000: da96 5a3e 88e0 d43f 4d7e 023a c010 07bf
00000010: 9d59 4c3f f87f 01be ccac aebe d22a 0fbf

module.encoder.0.2.weight f4 [2, 8]
0.43648967 -0.7171615 0.94963104 -0.21402739 0.47223082 -0.19171472 -0.068410404 -0.03832244
0.022916079 -1.404766 0.21769431 0.15219517 -0.7595424 -0.0077245478 0.20236965 0.13704929
00000000: 937b df3e e597 37bf 051b 733f ff29 5bbe
00000010: 3dc8 f13e dd50 44be c11a 8cbd fef7 1cbd
00000020: 80ba bb3c 5fcf b3bf 42eb 5e3e 0dd9 1b3e
00000030: 5f71 42bf 341e fdbb fd39 4f3e a656 0c3e

module.encoder.0.2.bias f4 [2]
-0.67577237 -0.8156742
00000000: 6bff 2cbf 06d0 50bf

module.encoder.1.0.weight f4 [8, 1]
-0.62130797 -0.8899448 -0.77657104 -0.3208239 1.4675932 -1.2023413 -0.80135655 0.5206844
00000000: 0a0e 1fbf 6cd3 63bf 5ccd 46bf 0843 a4be
00000010: 18da bb3f 52e6 99bf b425 4dbf 934b 053f

module.encoder.1.0.bias f4 [8]
0.62136513 1.1733599 1.0784057 -0.94912446 0.37858894 1.2024121 -0.9940828 1.0535107
00000000: c911 1f3f a830 963f 3309 8a3f d2f9 72bf
00000010: 69d6 c13e a4e8 993f 367c 7ebf 70d9 863f

module.encoder.1.2.weight f4 [2, 8]
0.5139517 0.6470618 0.3914453 0.25850558 -0.46478346 0.9117312 0.026811296 -0.48864704
-0.13847163 -0.6501809 -0.41378486 0.20255956 -0.77828217 -0.45601177 -0.20358706 -0.69573766
00000000: 5792 033f d8a5 253f 856b c83e d85a 843e
00000010: 19f8 edbe 3767 693f 5da3 db3c f22f fabe
00000020: 82cb 0dbe 4172 26bf 9cdb d3be c66b 4f3e
00000030: 803d 47bf 607a e9be 2079 50be dd1b 32bf

module.encoder.1.2.bias f4 [2]
-0.28748006 -0.64700013
00000000: 9630 93be cda1 25bf

module.encoder.2.0.weight f4 [8, 1]
0.28327727 0.98631805 -0.5518221 -0.2367197 0.8741728 1.4481226 1.4263796 -0.35881615
00000000: b809 913e 577f 7c3f 3744 0dbf a666 72be
00000010: cac9 5f3f 155c b93f 9b93 b63f c0b6 b7be

module.encoder.2.0.bias f4 [8]
-0.7962104 0.046030357 0.7263972 1.5702816 -0.9213698 0.04998783 0.030056207 -0.54491174
00000000: 72d4 4bbf 548a 3c3d 2bf5 393f fdfe c83f
00000010: e4de 6bbf 0ac0 4c3d 6f38 f63c 567f 0bbf

module.encoder.2.2.weight f4 [2, 8]
-0.14211382 0.80039847 -0.5162536 -0.6023901 -0.14314991 0.8486728 0.5437789 -0.23301108
-0.09144306 -0.3180648 -1.5746814 -0.7634131 0.27741668 -0.40029493 -0.0010987144 0.06634925
00000000: 4986 11be eae6 4c3f 3229 04bf 3d36 1abf
00000010: e495 12be 9f42 593f 1835 0b3f 759a 6ebe
00000020: 8046 bbbd 64d9 a2be 298f c9bf 0a6f 43bf
00000030: 8f09 8e3e 75f3 ccbe bd02 90ba 1ee2 873d

module.encoder.2.2.bias f4 [2]
-0.41268674 -1.2110841
00000000: ad4b d3be ce04 9bbf
